model.pth (torch, 46935 bytes, 6 tensors)

weight f4 [128, 20]
0	0x3db2aea5	0.08724717
1	0xbd0a5c85	-0.03377964
2	0xbe62d07b	-0.22149841
3	0xbe44520a	-0.1917192
4	0x3e5f8369	0.21827473
5	0xbe8b9b3e	-0.27266878
6	0xbb533b8b	-0.0032231535
7	0xbd9b462b	-0.07581743
8	0xbd8e2ada	-0.06941767
9	0x3d112b10	0.03544146
10	0x3d6fb257	0.058519688
11	0xbe5fa0d1	-0.2183869
12	0x3e4b20c1	0.19836713
13	0xbd82fba9	-0.063956566
14	0x3dd2d019	0.10293598
15	0xbe078758	-0.13235223
16	0x3e55a466	0.20863494
17	0x3e142047	0.14465438
18	0xbe24990f	-0.16074012
19	0x3d127288	0.035753757
20	0x3e70e31d	0.23524137
21	0xbe05673b	-0.1302766
22	0x3dee415c	0.1163356
23	0x3e2254a4	0.158526
24	0xbd6339bc	-0.05547498
25	0xbdb27fd7	-0.0871579
26	0x3e484283	0.19556622
27	0xbc9293e0	-0.017892778
28	0x3db93173	0.09042635
29	0xbe4aca07	-0.1980363
30	0x3e60e805	0.21963508
31	0xbe5b359d	-0.2140717
32	0x3df996bf	0.12186956
33	0x3e1435ee	0.14473698
34	0x3e310439	0.17286767
35	0xbe03dbc5	-0.12876804
36	0xbe295f8b	-0.16540353
37	0x3db33998	0.087512195
38	0xbe50273b	-0.20327465
39	0x3e175f72	0.14782503
40	0x3e69d039	0.22833337
41	0x3e192ecf	0.14959262
42	0x3e6dd2dd	0.23224969
43	0x3e36498c	0.17801493
44	0xbddfbfb8	-0.10925239
45	0x3e65edd6	0.22454008
46	0xbdbd3876	-0.09239285
47	0xbdb73a6c	-0.0894669
48	0xbeb6f56b	-0.35734114
49	0x3e1df886	0.15426835
50	0xbe36a922	-0.17837957
51	0xbe23c18a	-0.15991798
52	0xbe5857c1	-0.21127225
53	0xbe12f756	-0.14352164
54	0xbd7d7b34	-0.061885074
55	0x3e128857	0.14309822
56	0x3eb5b11b	0.35486683
57	0x3d6c7a54	0.05773385
58	0xbe256a02	-0.1615372
59	0xbd07143c	-0.03297828
60	0x3db28865	0.087174214
61	0xbbf8448c	-0.007576531
62	0xbe80e640	-0.25175667
63	0x3e2028f8	0.15640628
64	0xbe791d80	-0.2432766
65	0xbe81c3ac	-0.25344598
66	0xbd3d65fe	-0.046239845
67	0x3dda6a30	0.10664785
68	0xbe9610fc	-0.29309833
69	0xbe627daf	-0.22118257
70	0x3b272a9d	0.0025507577
71	0x3e612b5a	0.21989194
72	0x3b94430a	0.0045245932
73	0xbe7d3e84	-0.24730879
74	0x3e279e40	0.16368961
75	0xbe420df9	-0.18950643
76	0x3e0c80bc	0.13720983
77	0xbcbf1a43	-0.023327952
78	0x3e62a2ad	0.22132368
79	0xbe255308	-0.16144955
80	0xbd963d57	-0.073359184
81	0xbe137bdf	-0.14402722
82	0x3ead9571	0.33903077
83	0x3ea7744c	0.32705915
84	0xbeb616f2	-0.3556438
85	0xbe17444b	-0.14772145
86	0xbdf3eda2	-0.11910559
87	0xbe568bd8	-0.20951784
88	0x3e183d99	0.14867248
89	0x3e3258f6	0.17416748
90	0xbe288483	-0.16456799
91	0x3e06c00d	0.13159199
92	0x3d1f68c0	0.038918257
93	0x3e64f6a0	0.22359705
94	0x3dda54f4	0.10660735
95	0xbc615eca	-0.01375551
96	0x3d3c028c	0.045900866
97	0x3cc44d94	0.023962773
98	0x3eb73d41	0.3578892
99	0x3dcb9b88	0.099417746
100	0x3dcbe41d	0.099556185
101	0x3e16c73d	0.14724441
102	0x3e87a74b	0.26494822
103	0x3e83e142	0.25757796
104	0x3e8bb47d	0.2728614
105	0xbe871702	-0.2638474
106	0xbe651419	-0.22370948
107	0xbe972fc8	-0.29528642
108	0xbe73110f	-0.23736976
109	0xbd486ecc	-0.04893379
110	0xbe41257f	-0.1886196
111	0xbdc8f7c4	-0.098128825
112	0xbdf33763	-0.118757986
113	0xbde91f18	-0.11382884
114	0xbebed4b4	-0.37271655
115	0x3d9d18f0	0.07670772
116	0x3d0b6eb2	0.034041114
117	0x3deee112	0.116640225
118	0xbe3c0003	-0.1835938
119	0x3c0252f0	0.007954344
120	0x3d253107	0.04032996
121	0xbde3c7f2	-0.11122121
122	0x3cb429fc	0.021992676
123	0x3d85733f	0.06516122
124	0xbe46b1d2	-0.1940377
125	0xbe179123	-0.14801459
126	0xbd1330dc	-0.035935268
127	0xbee4a4e7	-0.4465706
128	0xbe1111c6	-0.14166936
129	0xbe37e9dd	-0.17960306
130	0x3c805183	0.015663868
131	0xbdcb41ba	-0.09924646
132	0x3e33f412	0.17573574
133	0xbdaf6997	-0.085650615
134	0x3d84d072	0.0648507
135	0xbdc27add	-0.094960906
136	0xbe8e4a6a	-0.27791148
137	0xbe372a49	-0.17887224
138	0x3dd3eebf	0.103482716
139	0x3d88603c	0.0665898
140	0xbdbf2e2c	-0.093349785
141	0xbde7300c	-0.11288461
142	0xbe527da1	-0.20555736
143	0x3b07ed3e	0.0020740773
144	0x3dd0238a	0.101630285
145	0x3e8a5aee	0.270225
146	0xbe1f5423	-0.1555944
147	0x3eb50dbc	0.3536204
148	0x3e2af137	0.16693579
149	0xbe456e72	-0.19280413
150	0xbd895bd7	-0.0670697
151	0xbe3d9ab8	-0.18516052
152	0xbe51fb36	-0.20505986
153	0xbe9b0dd4	-0.30283988
154	0xbdcdec5f	-0.1005485
155	0xbe5319ec	-0.20615357
156	0xbed30436	-0.4121415
157	0xbe58234a	-0.21107212
158	0xbe6f9b36	-0.23399052
159	0x3e42ec08	0.19035351
160	0x3eb72993	0.35773906
161	0xbdafe536	-0.085886404
162	0x3e19bb1a	0.1501278
163	0xbe2e606d	-0.17028971
164	0x3dfc275f	0.12312197
165	0x3e0534b4	0.13008386
166	0xbe7e049c	-0.24806446
167	0x3ccdc9df	0.025120674
168	0xbe04c007	-0.12963878
169	0x3e20fb7e	0.15720937
170	0xbc97a621	-0.018511834
171	0x3e53f9f5	0.2070082
172	0x3e550b8a	0.20805183
173	0xbbf2fc88	-0.007415358
174	0x3d88cdd1	0.06679881
175	0xbd4a3b54	-0.049372986
176	0xbd55c721	-0.052191857
177	0xbdc57e72	-0.09643258
178	0x3e3589ac	0.17728299
179	0xbcc72ae0	-0.024312437
180	0xbe32fef9	-0.17480077
181	0xbc6f17df	-0.014593094
182	0xbd109642	-0.035299547
183	0xbe71ffd0	-0.23632741
184	0xbeaa2cdd	-0.33237353
185	0xbe53fec9	-0.20702662
186	0x3d8222dc	0.06354305
187	0xbe1bc856	-0.15213141
188	0xbe641fd5	-0.22277768
189	0x3de58850	0.1120764
190	0x3dbe27ed	0.09284959
191	0x3c7a4dcd	0.015277338
192	0xbdb51e1b	-0.08843633
193	0xbd7113de	-0.058856837
194	0x3c0a54f2	0.008443104
195	0xbe07216a	-0.1319634
196	0x3dfe62c5	0.124211825
197	0xbe2f2966	-0.17105636
198	0x3de8b6b7	0.11362975
199	0x3e33a440	0.17543125
200	0xbdcb52f9	-0.09927935
201	0xbec2b798	-0.38030696
202	0xbc9fe4d1	-0.019518288
203	0x39ff5130	0.0004869788
204	0xbd18534d	-0.037188817
205	0xbd539413	-0.051654886
206	0x3b71bcd5	0.0036886234
207	0xbdbae965	-0.09126548
208	0x3cca3e10	0.024687797
209	0xbd9c1286	-0.076207206
210	0xbe96a231	-0.29420617
211	0xbe12b84d	-0.14328118
212	0x3e5fcb76	0.21854958
213	0x3d2b0985	0.041757125
214	0xbc3db0f9	-0.011577838
215	0xbdbb1e8e	-0.09136687
216	0x3c779875	0.015112032
217	0xbcfabf23	-0.03060872
218	0xbd21e1e1	-0.039522056
219	0xbca1ff20	-0.019774973
220	0xbe8f13a3	-0.2794467
221	0xbe17cc0e	-0.14823934
222	0xbd0a137e	-0.033709995
223	0xbd48b737	-0.049002852
224	0xbd4fa676	-0.05069586
225	0xbe359777	-0.1773356
226	0xbd296a11	-0.04136092
227	0x3e803a84	0.25044644
228	0xbec934a5	-0.39297977
229	0x3dec02bc	0.11523959
230	0x3e17b3c7	0.14814673
231	0x3e7c746a	0.24653783
232	0x3d18edcf	0.037336167
233	0xbddbc720	-0.107313395
234	0x3d5af058	0.053451866
235	0x3ce12d25	0.027487347
236	0x3c9de7c8	0.019275561
237	0xbea982d5	-0.3310763
238	0x3eaae993	0.33381328
239	0x3e1bdd68	0.15221179
240	0xbd6cdbf7	-0.057826962
241	0x3e026fd8	0.12737978
242	0x3e00bff5	0.12573226
243	0xbdcf636e	-0.101263866
244	0x3e8a5b53	0.270228
245	0xbcc76b2f	-0.024343101
246	0xbe46ca65	-0.19413145
247	0x3d335151	0.04377872
248	0xbcfd65a3	-0.030932253
249	0x3d678700	0.05652523
250	0xbdf41112	-0.119173184
251	0x3d6cd1ba	0.0578172
252	0x3e22ca0d	0.15897389
253	0xbe03149f	-0.12800835
254	0x3dc435b7	0.09580558
255	0x3e3c6e73	0.18401508

bias f4 [128]
0	0xbcd68f1f	-0.026191292
1	0x3e8c5124	0.27405655
2	0xbe35167a	-0.17684355
3	0xbda4a592	-0.080393925
4	0xbdab7a08	-0.08372885
5	0xbdfa48e2	-0.122209325
6	0xbcf610b2	-0.030037258
7	0xbe362396	-0.17787012
8	0x3f07e36f	0.5308141
9	0x3ec78175	0.38965955
10	0x3ec03621	0.37541297
11	0xbd511f91	-0.051055495
12	0xbd44dbfc	-0.048061356
13	0x3d7520e9	0.05984584
14	0x3ec09f48	0.37621522
15	0x3ef59d68	0.47971654
16	0x3ea6a36f	0.32546565
17	0xbcd50dff	-0.02600765
18	0x3e7d79ad	0.24753447
19	0x3e1315a8	0.1436373
20	0x3d911eda	0.070859626
21	0xbc415e4c	-0.011802267
22	0x3ece4be3	0.40292272
23	0x3f0148c0	0.5050163
24	0xbe5b3c8c	-0.21409816
25	0xbc7c7485	-0.01540864
26	0x3e1367b6	0.14395031
27	0xbd6a6320	-0.05722344
28	0xbe0c9dbb	-0.13732044
29	0x3ceacb14	0.028661288
30	0x3f0447e3	0.5167219
31	0x3ca1224b	0.019669672
32	0xbdc04631	-0.09388388
33	0x3eb14691	0.3462415
34	0xbe157641	-0.14595892
35	0x3ee6561f	0.4498758
36	0x3ec76795	0.38946214
37	0x3c92dab7	0.017926557
38	0xbe39f610	-0.18160272
39	0xbd20709c	-0.039169893
40	0x3f0394be	0.5139884
41	0x3c651cde	0.013983933
42	0x3ef7a212	0.48365837
43	0xbe14090d	-0.14456578
44	0x3d0236f4	0.03179069
45	0x3ece4d81	0.40293506
46	0xbccf7555	-0.025324503
47	0xbd93eed1	-0.07223285
48	0xbd640e48	-0.055677682
49	0x3dabf0c8	0.08395535
50	0xbd6c8d3e	-0.057751887
51	0x3db0d62f	0.08634602
52	0x3edf85eb	0.4365686
53	0x3d9c5e12	0.0763513
54	0x3e9f7170	0.31141233
55	0x3c129064	0.008945558
56	0x3d7da86c	0.061928198
57	0x3cc922bd	0.024552697
58	0xbc347d2e	-0.011016173
59	0x3e20a57b	0.15688126
60	0xbe1c8b27	-0.15287457
61	0xbdb51729	-0.08842308
62	0xbc7a6ad9	-0.0152842635
63	0x3e24505a	0.16046277
64	0xbd602dd9	-0.054731224
65	0x3f02fedb	0.5117013
66	0x3f0403f6	0.51568544
67	0x3da34206	0.07971577
68	0x3e9e4a96	0.3091628
69	0xbdbd88f6	-0.09254639
70	0x3e1ae600	0.151268
71	0x3ebbd85b	0.36688504
72	0xbd051531	-0.032490913
73	0x3da8c9d5	0.082416214
74	0xbd11033b	-0.03540347
75	0x3eaf38a2	0.34222895
76	0x3ecc2f08	0.39879632
77	0xbc3b8d05	-0.011447196
78	0x3edc3aba	0.43013555
79	0xbdfac0be	-0.12243794
80	0x3ea2adf6	0.31773347
81	0x3ef1f615	0.47258058
82	0x3daf66ab	0.08564504
83	0xbe782720	-0.24233675
84	0xbd40cd2a	-0.04707066
85	0xbd8286b7	-0.06373351
86	0xbe1675ca	-0.1469337
87	0xbe2f417b	-0.17114823
88	0x3eecae28	0.4622662
89	0x3e930008	0.2871096
90	0x3f011378	0.5042033
91	0xbe1cff60	-0.15331793
92	0x3eee3ddc	0.4653157
93	0xbd414048	-0.047180444
94	0x3db9f9ee	0.090808734
95	0xbd8c050f	-0.06836902
96	0x3ee6d6d5	0.4508578
97	0xbd4fe610	-0.050756514
98	0x3dd2ed01	0.10299111
99	0x3e9a19c7	0.30097792
100	0xbdeea7ac	-0.116530746
101	0x3eb73b4e	0.35787433
102	0xbe03edfc	-0.12883753
103	0x3ecb7348	0.3973639
104	0x3ea06b52	0.3133188
105	0x3eb49a84	0.35274136
106	0x3c4d0db6	0.012515476
107	0x3ee0b3cd	0.43887177
108	0x3f053799	0.5203796
109	0x3e64312f	0.22284387
110	0x3bd4a09e	0.0064888736
111	0xbd08abca	-0.033366956
112	0xbc67cd98	-0.014148138
113	0x3ed93bff	0.42428586
114	0xbdd0c2bd	-0.101933934
115	0x3f0236c2	0.50864804
116	0x3d84f434	0.064918905
117	0xbc139698	-0.009008072
118	0x3cd52971	0.026020737
119	0x3eaf36be	0.34221452
120	0x3e9c0349	0.30471256
121	0x3c87cfc5	0.016578564
122	0x3c835c87	0.016035331
123	0xbbf6ffbc	-0.00753781
124	0x3e930f5a	0.2872265
125	0x3df9a29e	0.1218922
126	0xbdaec6bf	-0.085340016
127	0x3ef5083f	0.47857854

weight f4 [64, 128]
0	0x3bd1d9c0	0.0064041317
1	0x3c2901df	0.0103153875
2	0x3e66f301	0.22553636
3	0x3dab20d5	0.083558716
4	0x3dd54287	0.1041308
5	0x3df7f49e	0.12107204
6	0x3db67087	0.08908182
7	0xbe045b06	-0.12925348
8	0xbb745275	-0.0037280594
9	0x3d9b2a64	0.07576445
10	0xbdebff27	-0.11523276
11	0xbbdbfce8	-0.0067134984
12	0x3daeb1ac	0.08529982
13	0x3e0b38cd	0.13595887
14	0xbc6685b9	-0.014069968
15	0xbc6c772e	-0.0144327115
16	0xbe1066af	-0.1410167
17	0x3c38bd55	0.011275609
18	0xbdb30b96	-0.08742444
19	0x3d369641	0.044576887
20	0x3dff3c0e	0.124626264
21	0x3df3ab75	0.11897937
22	0xbcf2fad5	-0.029660622
23	0xbdab5f7d	-0.08367822
24	0x3df465da	0.11933489
25	0x3d8f48e4	0.06996325
26	0xbd0591f8	-0.03260991
27	0x3dc0655e	0.09394334
28	0xbe48a33e	-0.19593522
29	0x3db49baf	0.08818757
30	0xbcc19113	-0.023628747
31	0xbe18a269	-0.14905705
32	0x3e782090	0.24231172
33	0xbd3d32d6	-0.04619106
34	0xbd915c96	-0.070977375
35	0xbda7ddfb	-0.08196636
36	0x3bc2ce9d	0.0059450404
37	0x3e6ec0e0	0.23315763
38	0x3e2e7b49	0.17039217
39	0x3de3802a	0.1110843
40	0xbde56706	-0.11201291
41	0x3ca8cc0f	0.020605115
42	0xbdccdbee	-0.10002886
43	0x3e1ce26c	0.15320748
44	0x3e0313e4	0.12800556
45	0x3c3e1f97	0.011604211
46	0x3db65b00	0.089040756
47	0x3dcc2f2f	0.09969937
48	0x3db703bf	0.089362614
49	0x3d3b0f9c	0.045669183
50	0x3e6d6745	0.23183925
51	0xbcbf9895	-0.023388186
52	0xba97893c	-0.0011561285
53	0x3e55adcc	0.2086708
54	0x3dec0386	0.115241095
55	0x3dd73225	0.10507611
56	0x3a9f999c	0.0012176516
57	0xbe4c1b55	-0.19932301
58	0x3d851761	0.064986
59	0x3dfb8603	0.1228142
60	0xbc67f5a3	-0.014157685
61	0x3da93078	0.08261198
62	0x3e6e8ea1	0.23296596
63	0x3deb58b8	0.11491531
64	0x3dd6e07d	0.104920365
65	0xbe0ce743	-0.13760094
66	0x3ba6c86b	0.0050898097
67	0xbe283406	-0.16426095
68	0xbdc40d3d	-0.095728375
69	0x3e140151	0.14453627
70	0xbe0fd1a9	-0.14044823
71	0xbdbfcd31	-0.09365309
72	0xbdf2d482	-0.11856939
73	0x3ded9d0c	0.1160222
74	0xbae0f08c	-0.0017161532
75	0x3d42a0a3	0.047516476
76	0x3c4181bc	0.011810716
77	0xbd32092f	-0.04346579
78	0xbd1571e8	-0.036485583
79	0x3df87bc8	0.121329844
80	0x3d20e0bb	0.03927682
81	0xbd703a89	-0.058649573
82	0x3e8d1ad1	0.27559522
83	0x3e9b6407	0.30349752
84	0x3de59f22	0.11211993
85	0x3e6a5b77	0.22886454
86	0x3e89ad8a	0.26890212
87	0x3d266b3a	0.040629603
88	0x3b96afeb	0.004598608
89	0xbca8efbd	-0.020622129
90	0xbdf699c5	-0.12041048
91	0xbc12cef9	-0.008960479
92	0xbd87685e	-0.06611703
93	0x3d910b62	0.07082249
94	0x3d623eeb	0.055235785
95	0x3ce6bdbb	0.028166642
96	0xbde90481	-0.11377812
97	0x3d419fcf	0.047271546
98	0xbb63c729	-0.003475616
99	0xbd727c12	-0.059200354
100	0xbb45841a	-0.0030138553
101	0xbe2c24a4	-0.16810852
102	0x3e12f122	0.14349797
103	0x3dbffc10	0.09374249
104	0x3e27b1ac	0.1637637
105	0x3e1def9a	0.15423432
106	0x3dced3a3	0.1009896
107	0xbe241a68	-0.16025698
108	0xbe4476be	-0.19185922
109	0xbc1aa4fd	-0.00943875
110	0xbc33f5d5	-0.010983904
111	0x3e3c7d8a	0.18407264
112	0xbd94b891	-0.07261766
113	0x3dd4a3aa	0.10382779
114	0xbcc135e0	-0.02358526
115	0x3d8c2fe3	0.06845071
116	0x3d71ba87	0.059015777
117	0xbe09f046	-0.13470563
118	0x3de8fb02	0.11376001
119	0x3d603d05	0.054745693
120	0xbd9cb882	-0.076523796
121	0xbd5807fb	-0.052741986
122	0xbd2bb7f9	-0.041923497
123	0x3d180710	0.03711611
124	0xba9485b0	-0.0011331346
125	0xbcde2513	-0.027117288
126	0x3d164092	0.036682673
127	0xbd56d498	-0.05244884
128	0xbb2d304f	-0.00264265
129	0x3dc53d8c	0.0963088
130	0x3d14d681	0.03633738
131	0xbd63af67	-0.0555872
132	0x3da90db8	0.0825457
133	0x3ddcac60	0.107750654
134	0x3dbb9f83	0.09161284
135	0xbdcaed5c	-0.09908554
136	0x3dd262d4	0.10272756
137	0x3d350fc4	0.04420449
138	0x3e071edb	0.13195364
139	0x3dc07560	0.093973875
140	0x3d5b2fc4	0.05351235
141	0x3e5cc6ea	0.21560255
142	0xbcad4a36	-0.02115355
143	0x3cb55b1b	0.022138169
144	0x3dcab28f	0.098973386
145	0xbda191c5	-0.078891315
146	0x3d582d64	0.052777663
147	0x3dbea942	0.09309627
148	0x3d6d7efb	0.057982426
149	0xbc9ceaa8	-0.019154862
150	0x3d9c0013	0.07617202
151	0x3d9f1ae1	0.077687986
152	0x3dd23e6c	0.10265812
153	0x3d87e6da	0.06635828
154	0x3c49c53d	0.012315092
155	0x3d2954a3	0.04134048
156	0x3e20e6f8	0.15713108
157	0x3cdf65c4	0.027270205
158	0x3d512411	0.051059786
159	0xbde45294	-0.11148563
160	0x3c5e2812	0.013559358
161	0x3e1afd16	0.15135607
162	0xbe21a191	-0.15784289
163	0x3c6ec5f9	0.014573568
164	0xbc0e5693	-0.008687633
165	0x3e04ba44	0.1296168
166	0x3d4f4729	0.050604973
167	0x3d2bc2b7	0.04193374
168	0x3d8e79b3	0.06956806
169	0x3dcccb49	0.09999711
170	0xbccd1b93	-0.025037562
171	0xbcfa300a	-0.030540485
172	0x3cae7f31	0.021300884
173	0xbd07233c	-0.032992586
174	0x3d93a029	0.072082825
175	0x3d725886	0.059166454
176	0xbe07b014	-0.13250762
177	0x3c2d9a63	0.010595891
178	0xbd5802f9	-0.05273721
179	0xbd82bf77	-0.06384175
180	0x3d18ff71	0.037352983
181	0xbd71de1e	-0.059049718
182	0xbd060ed2	-0.032728978
183	0x3d576788	0.05258897
184	0xbb8c576b	-0.004282882
185	0x3e5c8f4d	0.2153904
186	0x3d36448e	0.044498973
187	0x3d286473	0.04111142
188	0x3cd21200	0.025643349
189	0x3d9f6daf	0.07784592
190	0x3e391dc3	0.1807776
191	0xbd773e19	-0.060361955
192	0x3c27328c	0.010204922
193	0x3d02dcb8	0.031948775
194	0x3da3fb4b	0.08006915
195	0x3c06c834	0.008226443
196	0x3d9da529	0.076975174
197	0x3d440ca2	0.04786361
198	0x3dc4d4ff	0.09610938
199	0xbc88d8ce	-0.016704943
200	0xbb2faab8	-0.0026804637
201	0xbe04f79e	-0.12985083
202	0x3ca07eca	0.019591708
203	0xbe25063d	-0.16115661
204	0x3be7cb52	0.007073798
205	0xbd91fded	-0.071285106
206	0xbda525d3	-0.08063855
207	0xbd91e217	-0.07123201
208	0x3da9ab48	0.082846224
209	0xbd3a4b18	-0.04548177
210	0xbd8e9295	-0.06961552
211	0x3b9f8aea	0.004868855
212	0x3d6fd5e3	0.058553588
213	0x3d5445cb	0.051824372
214	0x3d45fa53	0.04833443
215	0x3d81ea05	0.06343464
216	0x3da027e1	0.07820106
217	0xbdf3cdda	-0.119044974
218	0x3d040386	0.032229923
219	0xbdd27890	-0.10276902
220	0xbdb3cb5e	-0.087790236
221	0x3d6090f7	0.05482575
222	0x3d7e5e64	0.062101737
223	0xbd95f065	-0.07321242
224	0x3d21247c	0.039341435
225	0xbc180196	-0.009277722
226	0x3d8141f2	0.06311406
227	0x3dd9042d	0.105964996
228	0x3d5073c5	0.050891656
229	0x3d6f730d	0.05845933
230	0xbcd11d0c	-0.025526546
231	0xbc3f3917	-0.011671326
232	0xbe081d10	-0.13292336
233	0xbd83861a	-0.06422062
234	0x3dadbfd7	0.08483856
235	0xbbf56141	-0.0074884
236	0x3d8eacf4	0.06966582
237	0xbd86c357	-0.06580227
238	0x3dcd45d3	0.100230835
239	0xbd0cf693	-0.03441484
240	0x3e85a484	0.26102078
241	0xbb9ead5d	-0.004842444
242	0x3dad9dfe	0.084774
243	0xbb8d9bf2	-0.0043215686
244	0x3d28f390	0.041247904
245	0x3d932db0	0.071864486
246	0x3d22ee52	0.03977806
247	0x3dba3506	0.09092145
248	0x3d8125ea	0.0630606
249	0x3d905d08	0.07048994
250	0xbd84d2c4	-0.06485513
251	0xbcaf70c0	-0.021416068
252	0x3d9f19b5	0.07768575
253	0x3c0a340b	0.00843526
254	0xbd34fbe5	-0.044185538
255	0x3c663f3d	0.014053163

bias f4 [64]
0	0xbc05619b	-0.008140947
1	0x3d9bd63d	0.07609222
2	0x3e310c8d	0.17289944
3	0xbdaa00e0	-0.08300948
4	0xbcbb6a44	-0.02287782
5	0xbc8f6ee1	-0.017508926
6	0xbe066cd9	-0.1312746
7	0x3e0a7983	0.13522916
8	0x3db6fb0c	0.08934602
9	0x3ca7bf4d	0.020476962
10	0xbda1a3ba	-0.078925565
11	0x3e6bb69e	0.23018882
12	0xbda7cdaf	-0.08193528
13	0x3e5a1169	0.21295704
14	0x3ba29255	0.004961292
15	0xbdbbc67e	-0.09168719
16	0x3ea1f67d	0.31633368
17	0x3d571ce6	0.052517794
18	0xbcec6bd3	-0.028860008
19	0x3d0e2a92	0.034708567
20	0x3e52f4e7	0.20601235
21	0x3e8af00d	0.2713627
22	0xbda73090	-0.081635594
23	0x3df34a7b	0.118794404
24	0x3da8d427	0.0824359
25	0x3ea186cf	0.31548163
26	0xbc8e09f6	-0.017338734
27	0xbd7784ee	-0.060429506
28	0xbd6c8768	-0.05774632
29	0x3e5b4add	0.21415277
30	0xbc957dfc	-0.01824855
31	0xbd879901	-0.0662098
32	0x3e66b701	0.22530748
33	0xbc8dcaa1	-0.017308535
34	0xbd166519	-0.036717508
35	0x3e1b546e	0.15168926
36	0x3e22ebfa	0.1591033
37	0x3d17b3c1	0.03703666
38	0xbd89263b	-0.06696745
39	0x3e009830	0.12558055
40	0xbd6cde0b	-0.057828944
41	0x3bfcd835	0.0077162036
42	0x3c77edc4	0.015132371
43	0xbd8a80da	-0.06762858
44	0x3cf78b57	0.03021781
45	0x3bde0028	0.006774921
46	0x3d5a30c5	0.053269166
47	0x3b8f8eed	0.0043810518
48	0x3e179af1	0.14805199
49	0x3a4b84ac	0.0007763605
50	0xbd7d9911	-0.061913554
51	0xbd7b6a71	-0.061380807
52	0x3e3d8344	0.18507105
53	0xbde5fb8d	-0.1122962
54	0xbc8e7be3	-0.017393058
55	0x3e6fe095	0.23425515
56	0x3e47e2c2	0.19520095
57	0xbd37c785	-0.04486801
58	0xbc2872ae	-0.010281248
59	0x3e8d5c85	0.2760965
60	0xbd48a318	-0.048983663
61	0xbd936aea	-0.071981266
62	0x3e2dbb9e	0.16966102
63	0x3cc37caf	0.023863165

weight f4 [2, 64]
0	0xbdf1c9af	-0.11806046
1	0xbe4bbee7	-0.19897042
2	0x3e8c901c	0.27453697
3	0xbb315c24	-0.0027062977
4	0xbc200624	-0.009767089
5	0xbea6ab0a	-0.32552367
6	0xbe9bd455	-0.30435434
7	0x3edf0992	0.4356199
8	0x3eaa9c87	0.33322546
9	0xbe82d4c4	-0.25552952
10	0xbed75c06	-0.42062396
11	0x3efe8332	0.4970947
12	0xbdab238d	-0.0835639
13	0x3e5b16a5	0.21395357
14	0x3e8b6150	0.2722268
15	0xbe4d8efd	-0.20074077
16	0x3eaffe74	0.3437382
17	0xbe857aaf	-0.26070163
18	0xbd8767a3	-0.06611564
19	0xbe9cdf86	-0.30639285
20	0x3f00bf0b	0.5029151
21	0x3eb8222f	0.3596358
22	0xbe5e8b6d	-0.21732874
23	0x3ea7a3a1	0.32742026
24	0x3ddf9ce6	0.10918598
25	0x3ea3b9b9	0.31977633
26	0xbe270943	-0.16312127
27	0xbe7a4e0c	-0.24443835
28	0xbde56251	-0.11200393
29	0x3eac0bdd	0.336028
30	0x3e8fe196	0.28101796
31	0x3e2b4260	0.16724539
32	0x3eb8ef9d	0.3612031
33	0xbeddc338	-0.43313003
34	0xbcb6d182	-0.022316698
35	0x3f275ecb	0.6537902
36	0x3f02ec04	0.5114138
37	0x3c971128	0.018440798
38	0xbe8ab759	-0.27093008
39	0x3e7f140e	0.24909994
40	0xbe14a668	-0.14516604
41	0x3f0070d5	0.5017217
42	0xbef0e247	-0.47047636
43	0x3e474f50	0.19463849
44	0xbe91c734	-0.28472292
45	0xbefcdfaf	-0.49389407
46	0x3ec7efd2	0.39050156
47	0xbed2e340	-0.41189003
48	0x3e1e5d64	0.15465313
49	0xbe77baa3	-0.2419229
50	0xbf03a827	-0.51428455
51	0xbf173321	-0.5906239
52	0x3ec890f6	0.39173096
53	0xbe37419d	-0.17896123
54	0x3eb2bba4	0.34908783
55	0x3e97a4fe	0.29618067
56	0x3f055955	0.52089435
57	0xbe4186d1	-0.18899085
58	0xbdabb899	-0.083848186
59	0x3e86e968	0.2634995
60	0xbe3a8c1e	-0.18217513
61	0x3f04dca2	0.5189916
62	0x3bda1267	0.0066550258
63	0xbeca2f4d	-0.39489213
64	0xbe54a593	-0.20766287
65	0x3e4556f4	0.19271451
66	0x3d97e172	0.07416047
67	0xbe93d25c	-0.2887143
68	0xbec8c54c	-0.39213026
69	0x3ec93f7f	0.39306256
70	0xbebbd14e	-0.36683124
71	0x3e399eb4	0.18126947
72	0x3eb34705	0.3501512
73	0x3de8f890	0.113755345
74	0x3e576e9c	0.21038288
75	0x3efc05a3	0.4922305
76	0xbe3779d8	-0.17917573
77	0x3ec02a8c	0.3753246
78	0xbeba8bbc	-0.36434734
79	0xbdd22b8b	-0.102622114
80	0x3ea66212	0.32496697
81	0x3de708fd	0.11281011
82	0xbe69a3d8	-0.22816408
83	0x3c7ab3bd	0.015301642
84	0x3ef272b9	0.4735315
85	0x3e64eb19	0.22355308
86	0xba397a5b	-0.00070754223
87	0xbeb9e74b	-0.36309275
88	0x3e98f1a8	0.2987187
89	0x3e82a994	0.25520003
90	0xbe884472	-0.2661472
91	0x3e4e33a3	0.20136885
92	0xbe275169	-0.1633965
93	0x3e921f64	0.28539574
94	0xbf2152cc	-0.63016963
95	0xbedff33a	-0.43740255
96	0x3ebf34a3	0.37344846
97	0x3f30bb70	0.69036007
98	0xbea63bdf	-0.32467553
99	0xbce0bae6	-0.02743287
100	0x3e383c45	0.17991741
101	0x3e73e393	0.23817281
102	0x3dacfed5	0.08447043
103	0x3edc450b	0.43021426
104	0xbe001ea9	-0.12511696
105	0xbe28bbd9	-0.16477908
106	0x3f0a2e0e	0.53976524
107	0xbf1c2a30	-0.61001873
108	0xbe3ced39	-0.18449868
109	0x3f056314	0.52104306
110	0x3de9092c	0.113787025
111	0x3e0b0d29	0.13579239
112	0x3e687a88	0.22702992
113	0xbe2d4ec7	-0.16924582
114	0x3f44808b	0.7675864
115	0x3e7a3136	0.24432835
116	0x3e022f1e	0.12713286
117	0xbdb7c41e	-0.08972953
118	0xbe6b95c0	-0.23006344
119	0x3e91c295	0.28468767
120	0x3ea62ada	0.32454568
121	0xbe11ea36	-0.142495
122	0xbe0653a4	-0.13117844
123	0x3e385086	0.17999467
124	0xbdea8d5b	-0.11452743
125	0xbf05d3b6	-0.5227617
126	0x3f268a8e	0.6505517
127	0x3f0f0f84	0.5588305

bias f4 [2]
0	0x3e243210	0.16034722
1	0x3e011610	0.12606072
